…
2024-07-26 16:58:04,173 - INFO - CNN model created successfully
2024-07-26 16:58:04,174 - INFO - Creating Autoencoder model
2024-07-26 16:58:04,209 - INFO - Autoencoder model created successfully
2024-07-26 16:58:04,209 - INFO - Creating Isolation Forest model
2024-07-26 16:58:04,209 - INFO - Isolation Forest model created successfully
2024-07-26 16:58:04,209 - INFO - Model creation process completed
2024-07-26 16:58:04,209 - INFO - LSTM model summary:
2024-07-26 16:58:04,216 - INFO - 
Model: "sequential"

 Layer (type)                     Output Shape                  Param # 

 lstm (LSTM)                      (None, 50)                     10,400 

 dense (Dense)                    (None, 1)                          51 

 Total params: 10,451 (40.82 KB)
 Trainable params: 10,451 (40.82 KB)
 Non-trainable params: 0 (0.00 B)


2024-07-26 16:58:04,216 - INFO - CNN model summary:
2024-07-26 16:58:04,221 - INFO - 
Model: "sequential_1"

 Layer (type)                     Output Shape                  Param # 

 conv1d (Conv1D)                  (None, 98, 32)                    128 

 max_pooling1d (MaxPooling1D)     (None, 49, 32)                      0 

 flatten (Flatten)                (None, 1568)                        0 

 dense_1 (Dense)                  (None, 50)                     78,450 

 dense_2 (Dense)                  (None, 1)                          51 

 Total params: 78,629 (307.14 KB)
 Trainable params: 78,629 (307.14 KB)
 Non-trainable params: 0 (0.00 B)


2024-07-26 16:58:04,221 - INFO - Autoencoder model summary:
2024-07-26 16:58:04,227 - INFO - 
Model: "sequential_2"

 Layer (type)                     Output Shape                  Param # 

 dense_3 (Dense)                  (None, 64)                      6,464 

 dense_4 (Dense)                  (None, 32)                      2,080 

 dense_5 (Dense)                  (None, 64)                      2,112 

 dense_6 (Dense)                  (None, 100)                     6,500 

 Total params: 17,156 (67.02 KB)
 Trainable params: 17,156 (67.02 KB)
 Non-trainable params: 0 (0.00 B)


2024-07-26 16:58:04,227 - INFO - Isolation Forest model created, no summary available for non-keras models
2024-07-26 17:01:59,501 - INFO - Configuration loaded successfully from ../config/model_config.yaml
2024-07-26 17:01:59,502 - INFO - Starting model creation process
2024-07-26 17:01:59,502 - INFO - Creating LSTM model
…
